…
 'RESOLUTION': '1.25mm',
 'SAVE_WEIGHTS': True,
 'SEGMENT': False,
 'SEG_INPUT': 'Peaks',
 'SLICE_DIRECTION': 'y',
 'SPATIAL_TRANSFORM': 'SpatialTransformPeaks',
 'TEST': False,
 'TEST_TIME_DAUG': False,
 'THRESHOLD': 0.5,
 'TRACTSEG_DIR': 'tractseg_output',
 'TRAIN': True,
 'TRAINING_SLICE_DIRECTION': 'xyz',
 'TYPE': 'single_direction',
 'UNET_NR_FILT': 64,
 'UPSAMPLE_TYPE': 'bilinear',
 'USE_DROPOUT': False,
 'USE_VISLOGGER': False,
 'VERBOSE': True,
 'WEIGHTS_PATH': '',
 'WEIGHT_DECAY': 0}
INFO: Did not find APEX, defaulting to fp32 training
UNet_Pytorch_DeepSup(
  (contr_1_1): Sequential(
    (0): Conv2d(9, 64, kernel_size=(3, 3), stride=(1, 1), padding=(1, 1))
    (1): LeakyReLU(negative_slope=0.01, inplace=True)
  )
  (contr_1_2): Sequential(
    (0): Conv2d(64, 64, kernel_size=(3, 3), stride=(1, 1), padding=(1, 1))
    (1): LeakyReLU(negative_slope=0.01, inplace=True)
  )
  (pool_1): MaxPool2d(kernel_size=(2, 2), stride=(2, 2), padding=0, dilation=1, ceil_mode=False)
  (contr_2_1): Sequential(
    (0): Conv2d(64, 128, kernel_size=(3, 3), stride=(1, 1), padding=(1, 1))
    (1): LeakyReLU(negative_slope=0.01, inplace=True)
  )
  (contr_2_2): Sequential(
    (0): Conv2d(128, 128, kernel_size=(3, 3), stride=(1, 1), padding=(1, 1))
    (1): LeakyReLU(negative_slope=0.01, inplace=True)
  )
  (pool_2): MaxPool2d(kernel_size=(2, 2), stride=(2, 2), padding=0, dilation=1, ceil_mode=False)
  (contr_3_1): Sequential(
    (0): Conv2d(128, 256, kernel_size=(3, 3), stride=(1, 1), padding=(1, 1))
    (1): LeakyReLU(negative_slope=0.01, inplace=True)
  )
  (contr_3_2): Sequential(
    (0): Conv2d(256, 256, kernel_size=(3, 3), stride=(1, 1), padding=(1, 1))
    (1): LeakyReLU(negative_slope=0.01, inplace=True)
  )
  (pool_3): MaxPool2d(kernel_size=(2, 2), stride=(2, 2), padding=0, dilation=1, ceil_mode=False)
  (contr_4_1): Sequential(
    (0): Conv2d(256, 512, kernel_size=(3, 3), stride=(1, 1), padding=(1, 1))
    (1): LeakyReLU(negative_slope=0.01, inplace=True)
  )
  (contr_4_2): Sequential(
    (0): Conv2d(512, 512, kernel_size=(3, 3), stride=(1, 1), padding=(1, 1))
    (1): LeakyReLU(negative_slope=0.01, inplace=True)
  )
  (pool_4): MaxPool2d(kernel_size=(2, 2), stride=(2, 2), padding=0, dilation=1, ceil_mode=False)
  (dropout): Dropout(p=0.4, inplace=False)
  (encode_1): Sequential(
    (0): Conv2d(512, 1024, kernel_size=(3, 3), stride=(1, 1), padding=(1, 1))
    (1): LeakyReLU(negative_slope=0.01, inplace=True)
  )
  (encode_2): Sequential(
    (0): Conv2d(1024, 1024, kernel_size=(3, 3), stride=(1, 1), padding=(1, 1))
    (1): LeakyReLU(negative_slope=0.01, inplace=True)
  )
  (deconv_1): Sequential(
    (0): ConvTranspose2d(1024, 1024, kernel_size=(2, 2), stride=(2, 2))
    (1): LeakyReLU(negative_slope=0.01, inplace=True)
  )
  (expand_1_1): Sequential(
    (0): Conv2d(1536, 512, kernel_size=(3, 3), stride=(1, 1), padding=(1, 1))
    (1): LeakyReLU(negative_slope=0.01, inplace=True)
  )
  (expand_1_2): Sequential(
    (0): Conv2d(512, 512, kernel_size=(3, 3), stride=(1, 1), padding=(1, 1))
    (1): LeakyReLU(negative_slope=0.01, inplace=True)
  )
  (deconv_2): Sequential(
    (0): ConvTranspose2d(512, 512, kernel_size=(2, 2), stride=(2, 2))
    (1): LeakyReLU(negative_slope=0.01, inplace=True)
  )
  (expand_2_1): Sequential(
    (0): Conv2d(768, 256, kernel_size=(3, 3), stride=(1, 1), padding=(1, 1))
    (1): LeakyReLU(negative_slope=0.01, inplace=True)
  )
  (expand_2_2): Sequential(
    (0): Conv2d(256, 256, kernel_size=(3, 3), stride=(1, 1), padding=(1, 1))
    (1): LeakyReLU(negative_slope=0.01, inplace=True)
  )
  (deconv_3): Sequential(
    (0): ConvTranspose2d(256, 256, kernel_size=(2, 2), stride=(2, 2))
    (1): LeakyReLU(negative_slope=0.01, inplace=True)
  )
  (output_2): Conv2d(768, 61, kernel_size=(1, 1), stride=(1, 1))
  (output_2_up): Upsample(scale_factor=2.0, mode='bilinear')
  (expand_3_1): Sequential(
    (0): Conv2d(384, 128, kernel_size=(3, 3), stride=(1, 1), padding=(1, 1))
    (1): LeakyReLU(negative_slope=0.01, inplace=True)
  )
  (expand_3_2): Sequential(
    (0): Conv2d(128, 128, kernel_size=(3, 3), stride=(1, 1), padding=(1, 1))
    (1): LeakyReLU(negative_slope=0.01, inplace=True)
  )
  (deconv_4): Sequential(
    (0): ConvTranspose2d(128, 128, kernel_size=(2, 2), stride=(2, 2))
    (1): LeakyReLU(negative_slope=0.01, inplace=True)
  )
  (output_3): Conv2d(384, 61, kernel_size=(1, 1), stride=(1, 1))
  (output_3_up): Upsample(scale_factor=2.0, mode='bilinear')
  (expand_4_1): Sequential(
    (0): Conv2d(192, 64, kernel_size=(3, 3), stride=(1, 1), padding=(1, 1))
    (1): LeakyReLU(negative_slope=0.01, inplace=True)
  )
  (expand_4_2): Sequential(
    (0): Conv2d(64, 64, kernel_size=(3, 3), stride=(1, 1), padding=(1, 1))
    (1): LeakyReLU(negative_slope=0.01, inplace=True)
  )
  (conv_5): Conv2d(64, 61, kernel_size=(1, 1), stride=(1, 1))
)
Number of parameters: 37029175
Percent parameters less than 0.01: 78.2297592163086%
Training...
c317-001.ls6.tacc.utexas.edu
Start looping batches...
using pin_memory on device 0
train Ep 0, Sp 160, loss 7.70256, t print 24.991s, t batch 1.25s
train Ep 0, Sp 320, loss 7.480823, t print 11.979s, t batch 0.599s
train Ep 0, Sp 480, loss 7.378119, t print 11.464s, t batch 0.573s
…
